Granger-Inspired Clustering (Synthetic Dataset)/Synthetic Data Figures and Data/effect_ts_constant_weight_increasing_noise.npy (npy, 144128 bytes, 1 tensors)

array f8 [18, 1000]
000000 96 c5 68 44 d6 86 e5 3f e6 05 72 a5 e8 f3 e9 3f
       0.6727095924490409 0.8110240203242796
000010 f0 3e 17 15 8f 40 cd 3f 46 0e 66 4c 73 9a c9 3f
       0.22853268174957675 0.2000259516754445
000020 20 49 f4 65 ce b2 b2 bf 5e e3 85 98 e3 ca f0 3f
       -0.07304086674802024 1.0495334585122786
000030 dd c3 e6 2d 90 6b d7 bf a6 32 b2 38 db 35 f9 3f
       -0.365940136743175 1.5756485190096696
000040 4f eb 89 e7 25 6c 0a 40 47 29 58 74 47 20 fc 3f
       3.302806671997508 1.7578806442930544
000050 ec 4c 77 ee 29 87 d7 3f 88 58 0e f1 7e d0 b0 bf
       0.3676247433442785 -0.06568139443547427
000060 f2 cb c3 2a 25 50 c9 bf 3b 4b e6 63 ec af e6 3f
       -0.1977583369076395 0.7089750243343141
000070 40 d7 9a b5 20 b9 ad bf 50 2a 45 fb ee a5 a4 3f
       -0.05805303780418436 0.04032847230208303
000080 a8 45 79 e8 5d 27 72 bf 4d cb 88 f2 84 cc d2 bf
       -0.004432074383275454 -0.29373286900515866
000090 ac c2 89 cd b6 81 b2 3f dd 59 30 41 81 90 dc 3f
       0.07229177968998596 0.44631987920857147
0000a0 e0 5a 3a b0 99 55 a7 bf 27 72 b1 9f 6e 9f d3 3f
       -0.04557495380611498 0.306605964613285
0000b0 07 c6 7f 6b 5b 57 eb 3f e3 d3 c4 2c 93 49 ea 3f
       0.8544137096016023 0.8214813112632523
0000c0 36 e8 3d 6f bd ca e0 3f 20 e9 7f db 44 5c 9d 3f
       0.5247485325519452 0.028672290703959935
0000d0 b6 d3 81 89 c1 e4 c7 bf b6 25 a7 47 54 74 d0 3f
       -0.1866685792371336 0.2571001720176257
0000e0 87 6e b8 9c a3 32 cd 3f 30 36 9c 38 14 dc d6 3f
       0.228107882999087 0.35718255546894095
0000f0 94 77 f7 30 39 68 ed 3f 78 0a 4c 9d 94 b5 e7 bf
       0.9189725834255449 -0.7409155914504728
000100 38 22 77 e5 ce bf a8 3f a4 14 0e f1 30 cb e5 3f
       0.04833838034716503 0.6810536106210248
000110 dc 8a 2e 55 e8 1a df 3f 35 00 82 b9 98 d7 f6 3f
       0.48601730650459074 1.4276358839415597
000120 52 15 f8 ac 21 a2 eb 3f 68 a5 f3 e0 4c fa d6 bf
       0.8635414484312298 -0.35902711837714785
000130 30 5d 86 7d 1e 1b e7 bf ce 71 4a d9 6a 2c e7 bf
       -0.7220604373605166 -0.7241720432244223
000140 38 9b 93 54 39 74 be 3f c6 8b b0 38 93 6d ef bf
       0.11896093668802343 -0.9821258647174254
000150 2d ad f5 b9 0c 03 d8 bf ee 40 40 29 8c ab ee 3f
       -0.3751861396801413 0.9584408574756063
000160 50 a4 ba a7 b5 02 f3 bf 3c 6a b4 5a b4 20 dd 3f
       -1.1881615211407457 0.45512112481961586
000170 d5 06 72 3f fa 6e d0 bf b4 13 aa e8 df 31 e7 bf
       -0.25677353092042426 -0.7248382133699267
000180 7c d9 3d 17 3b 86 d4 3f 7b ff 20 b9 89 6c d4 bf
       0.32069279927909355 -0.31912463263505914
000190 15 2b ee 1b d7 44 e7 bf e0 b6 79 6d e1 55 d6 bf
       -0.7271533532633351 -0.34899173441850273
0001a0 56 9d fe e9 1f 15 f0 3f e1 a1 3d 3d dc 19 d9 3f
       1.0051573887265781 0.39220338802854654
0001b0 95 30 1c cb e8 a3 cc bf 2d 22 6a b1 e4 33 fa bf
       -0.223752116370069 -1.6376692705399691
0001c0 69 1c 55 40 0b 0b e4 bf 65 d2 ee 5f 83 f5 ec 3f
       -0.6263481384747936 0.9049698709191715
0001d0 fc 97 40 95 53 91 d6 3f 6f f0 cf 4a 5c 14 b3 3f
       0.3526200254003695 0.07452942682715656
0001e0 6c e3 a3 22 62 f6 e0 bf 86 91 49 d2 37 f5 e9 3f
       -0.5300760914388838 0.8111838442969634
0001f0 b7 44 59 73 19 0e d7 3f b1 af d6 a4 c0 b7 e8 3f
       0.36023556007883023 0.7724307269577279
000200 8c d6 6a 6c cf be a9 3f 51 00 56 f9 f3 2c fe 3f
       0.05028389166311084 1.8859748592076537
000210 e9 c7 16 bc 2c 99 f6 3f c8 d8 cf 84 29 27 f1 3f
       1.4123961779810037 1.072061079784861
000220 cc 66 62 26 e6 65 eb 3f 53 40 a2 cf 1a 36 e1 bf
       0.8561888456053679 -0.5378545813891925
000230 24 2f b9 30 b2 ea da 3f 56 1c 6c 3f 05 fa ee 3f
       0.42057471044675965 0.9680200804440442
000240 3e 77 e4 0f 8f 15 dd 3f 9d f7 fc ca 53 64 e1 bf
       0.45444084693905384 -0.5434969868290299
000250 92 fb 8b 4a 91 43 ea bf 10 fa 56 8d 4a 59 cd bf
       -0.8207479911796887 -0.22928745175700316
000260 38 87 4a e1 3d 75 ad 3f 04 8d 09 31 50 1a dc 3f
       0.05753510832916081 0.43910603321838004
000270 90 2a ef ae 3f c6 e7 bf c8 1d b9 e0 69 fa f8 3f
       -0.7429502884563863 1.5611361292120467
000280 a7 7d 9c a2 3d 53 f0 3f 07 08 15 f5 93 99 f5 3f
       1.0203224517825704 1.3499946187516814
000290 7e 4d 81 29 34 42 d8 bf 52 d1 c0 e7 45 58 d4 3f
       -0.37904075673323934 0.3178877604689393
0002a0 f5 fd 79 b1 04 f3 f0 3f 6a 65 71 c6 27 18 cf bf
       1.059330647723866 -0.24292466344449376
0002b0 80 ea fd c8 39 57 30 bf fd cf 07 a2 24 09 e8 3f
       -0.0002493396832431785 0.7511161007555526
0002c0 f9 da fe 49 a5 0e f5 3f b9 c2 10 4b ed af db 3f
       1.3160756006670324 0.432612727457165
0002d0 96 04 c5 88 41 da ee 3f 62 c6 bb c3 80 cc e8 3f
       0.9641425772935175 0.7749637434882966
0002e0 51 98 b2 1e 13 f1 f2 3f bc 5f b2 b1 1b b1 d1 3f
       1.1838561247946198 0.27643482545090214
0002f0 d4 05 a7 38 78 e2 e4 3f ac 91 49 e5 ae 74 b0 3f
       0.6526452166073633 0.06428044412456896
000300 12 a6 6d 66 e2 00 d9 bf c0 64 6e f5 74 97 b8 bf
       -0.39067897799267925 -0.0960610484311415
000310 1b 3f 2c 56 ff 7b f4 bf 58 57 8e 47 56 68 bc bf
       -1.2802728048445207 -0.11096705672238494
000320 64 0a dc 97 de 2d d1 3f ba c6 2a 3e 81 25 f7 3f
       0.2684246523860223 1.4466564587022916
000330 73 61 72 be e7 47 02 40 73 d2 79 fd d0 b9 e2 3f
       2.2851099852234085 0.5851826620770012
000340 4a 8f dd 11 9c fc d2 3f 7b b6 17 5e 9c 76 01 40
       0.2966680693118532 2.1829154349314286
000350 84 d8 70 a6 9e c4 de 3f 62 5b 99 bb 13 3c c8 3f
       0.48075071577057593 0.18933340702161688
000360 f3 83 15 88 79 89 f1 3f 4c da db 71 58 68 f9 3f
       1.0960631671698564 1.5879749724969257
000370 23 cd e0 cf 6a b4 c7 bf a2 91 ba 25 c9 96 c3 3f
       -0.18519339704799007 0.15303911535478415
000380 06 5b a5 4f 99 2b ef 3f 43 1e 47 98 de e4 e2 3f
       0.9740721278747919 0.5904381727386369
000390 9c de c5 f4 bb a6 fd 3f 2f 77 f4 ff de 56 f7 3f
       1.853206592697382 1.4587087629547104
0003a0 99 8e a6 90 37 8d 03 40 60 39 3f cc 60 e3 db 3f
       2.443953638155858 0.435753058872157
0003b0 2c 17 55 4d bd 8d da bf 44 fe 75 5c ad e6 e9 bf
       -0.41490109016409593 -0.8094088369252366
0003c0 19 99 64 f7 e6 6d e7 bf 8e 9a 37 8c ff a3 d1 bf
       -0.7321657974141856 -0.27563465779386653
0003d0 70 4c 95 45 93 f1 da bf 7a 06 d7 70 eb 3d ed bf
       -0.42099458499178066 -0.9138085559754494
0003e0 99 b3 84 c8 1e 62 ec 3f 1d ad b5 f1 2b 6d fa 3f
       0.8869775692343068 1.6516532365593044
0003f0 41 2c 62 d3 cb 60 da 3f dc cd 92 54 68 d8 f5 bf
       0.41215797083777167 -1.3653338721895727
000400 ae 68 4b 33 ec fc d5 3f ac 37 0c 30 01 b1 e1 bf
       0.3435621739314553 -0.5528570116455191
000410 d2 4a 21 ed d0 0c bc bf b4 0d 34 30 46 10 b9 bf
       -0.10957055844600497 -0.09790457417334758
000420 44 f1 76 68 9a 4b eb 3f 4a 7a a6 05 e3 24 f0 bf
       0.852978900940379 -1.009005567618845
000430 71 e1 f0 24 23 d4 ec 3f 21 51 d2 e9 c7 62 fc 3f
       0.9008956643583997 1.7741164334921182
000440 a7 f6 a1 c9 b3 2f c8 bf c9 e3 00 27 9a 91 f0 bf
       -0.1889557585272332 -1.0355474017689963
000450 9c ee 96 11 5d 39 e4 3f 80 a2 9e 6d d4 99 cf bf
       0.6320023864313558 -0.24688201286814504
000460 16 c6 f4 34 53 f3 dd bf f2 ca 75 91 2b 89 d2 3f
       -0.4679763810300711 0.28962220387545223
000470 66 79 9a 8d ec 37 d7 3f cd d5 86 73 b0 b8 f2 3f
       0.3627883322568749 1.1700901520501816
000480 e1 36 66 a1 29 3f dc 3f 60 77 d6 d4 38 2f ed bf
       0.4413551403202814 -0.9120144040095788
000490 88 bb 1f a2 a5 91 e6 3f 6f 89 00 67 8c e5 fc 3f
       0.7052791754230023 1.8060421012420098
0004a0 97 da e9 99 f0 6c b4 bf c0 3a bf fb 39 1e f3 3f
       -0.07978729016927343 1.1948795160166554
0004b0 92 ca b8 61 19 d2 e3 3f 27 97 df 3d 59 3e e3 bf
       0.6193968685750681 -0.6013609131302687
0004c0 de 9a 1e 2a ec 3c bc 3f ba 4e 18 fb e9 82 e4 3f
       0.11030460384663907 0.6409807113836543
0004d0 3c 3d 6e b2 a9 14 cf bf 98 8d 14 69 db 80 e1 bf
       -0.24281808102066715 -0.5469796230649306
0004e0 10 e1 65 dd a9 7e e0 bf 04 49 3e 71 92 49 e8 3f
       -0.5154618572405827 0.7589809619696841
0004f0 82 32 ef de 17 b3 f0 3f 31 45 02 bb d9 19 da bf
       1.0437239368795024 -0.4078277899034957
000500 32 92 3f 5d a0 ab f5 3f 05 fe 14 44 c8 0d f8 3f
       1.3544009821427037 1.5033648166134992
000510 de 4f fe 39 ca d0 f0 3f 6a a7 d9 1d 93 41 ed bf
       1.0509741082541875 -0.9142547209751062
000520 7c 7d b0 b9 24 87 e4 bf e9 e4 38 98 ea 7a df bf
       -0.6414970041986829 -0.49187722077802093
000530 7c b8 3c 1e 70 c2 e2 3f 16 5c e3 b6 9d 3d d2 3f
       0.586235102707874 0.28501074657600733
000540 67 a0 6d d5 a0 61 cb bf 52 81 c5 7a 48 e8 c3 3f
       -0.2139168779497169 0.1555262183637845
000550 90 8b e0 2f f9 da bd 3f 90 90 51 e7 4b 3a ec bf
       0.11662251871943696 -0.882116271776356
000560 82 d4 d0 45 b9 b6 c6 3f 15 32 da 5e 1c fe e1 bf
       0.17745128544780547 -0.5622693874916559
000570 77 75 4d 55 b5 e1 f7 3f 1a 8f 16 d9 c5 45 e7 3f
       1.4926045734531195 0.7272671928408017
000580 59 ad aa 23 77 25 d4 bf 14 e5 ae f3 58 57 ee 3f
       -0.314786705809373 0.9481625327527206
000590 07 73 ae 44 9f da e0 bf e7 e3 69 19 8d 98 ef 3f
       -0.5266872731623103 0.9873719688758883
0005a0 5d 82 76 fc d1 2a d9 3f 5e cc 9f 24 0d 2b c9 bf
       0.3932385411699551 -0.19662632263461693
0005b0 3a e9 17 58 b7 ad d0 3f 62 47 ce bf ab 57 e1 3f
       0.2606027946746 0.5419520136076523
0005c0 08 10 95 d9 91 1d ef 3f f9 c9 dc c2 84 22 fc 3f
       0.9723595857290102 1.7584273921789857
0005d0 e4 b9 de 0f ac 94 e1 3f d9 ac 78 b5 b5 42 f9 3f
       0.5493984518014341 1.5787865723348686
0005e0 cd f9 11 d7 62 37 ce 3f e1 a5 15 8e fb 16 e1 3f
       0.2360652494571255 0.5340554976548298
0005f0 08 a7 7f a2 11 f3 f2 3f 55 3d 96 22 39 e9 de 3f
       1.1843429896929951 0.4829848134767947
000600 5e 9b fa 0d b4 94 ee bf 55 9f c5 6a 89 ce f4 3f
       -0.9556522629762687 1.3004240198879036
000610 10 81 ef eb f6 ba d6 3f 46 b8 f7 a1 57 9d ca bf
       0.35516140976507504 -0.2079267063958829
000620 b4 63 0b 14 00 ab f7 3f 27 76 4d 4a 6d eb e5 3f
       1.4792481215465445 0.684988637087092
000630 30 f0 7b 8e 3d be e5 3f 89 ab 0d 86 9c ef d4 3f
       0.6794727118390309 0.32712472048904623
000640 3a 73 ca 54 98 f5 db 3f 48 52 9c 53 77 af f4 3f
       0.4368649318728789 1.292838408092523
000650 a4 66 5b e8 19 97 df 3f 32 66 5c 4f 75 4a ac 3f
       0.49359748545757953 0.055255571305860576
000660 2a ce 8b fa 9d fd ed 3f 96 d5 6d 86 2f 91 03 40
       0.9372091191748428 2.4458914282101416
000670 a7 49 b6 ad cb 66 d0 3f 00 93 5b e4 a4 1d f3 bf
       0.25627414669102183 -1.194737331411659
000680 aa 62 2e f6 66 7e d2 bf 30 11 63 2d be f2 ab bf
       -0.28896497765667084 -0.05458635620155616
000690 99 82 16 3a 3d 0e 05 40 da 5d 53 5f 2d 49 ff 3f
       2.6319527185554077 1.9553655360849604
0006a0 d3 c2 c7 74 b7 4c f2 3f 92 62 3d c9 35 75 e5 3f
       1.1437296449404826 0.6705578737701947
0006b0 f7 8c 5d 29 69 47 e3 3f 34 bb aa e6 69 9f c1 bf
       0.602467137138233 -0.13767741930993227
0006c0 d6 54 89 ba 3c 2c f2 3f 7e ec 24 6f 02 45 c7 3f
       1.1358001028614146 0.181793503064771
0006d0 a6 23 10 ba d0 94 dd bf 55 3b 61 d1 6c 93 e9 3f
       -0.46220796747416626 0.7992462243508763
0006e0 18 1f a1 86 6e 9b fe 3f 4a dd cb d9 5d b5 d6 3f
       1.9129472025833305 0.35481973904775954
0006f0 42 c1 61 96 1a 72 fe 3f 0d 4d b9 71 88 a7 f9 bf
       1.9028573869982925 -1.6034016077363191
000700 01 45 e1 80 c5 e5 dc 3f 3a c4 71 48 3d 1c 00 40
       0.4515241392701484 2.0137887630194458
000710 31 e6 c1 12 d1 dc e4 3f d4 68 b5 42 c1 e8 e1 bf
       0.6519551626544794 -0.5596624663260408
000720 76 a5 9b 19 aa 49 d8 bf 94 4c 9f ef 84 d5 d4 3f
       -0.3794961214139997 0.3255321826993136
000730 10 9a a1 76 8d a0 c7 3f 79 ae 03 2e 0e 8b 00 40
       0.18458717625181054 2.0678981394647136
000740 60 06 da d1 29 51 8c 3f 08 20 c7 46 37 a0 df 3f
       0.013826681820549414 0.4941538039388438
000750 0f 97 b5 d3 3d ef 01 40 39 79 7f f2 1a ec d4 bf
       2.241817144374074 -0.3269107216018657
000760 c5 d2 b1 54 8d 4c fd bf b6 82 d0 9e 65 2d de 3f
       -1.8311894710906682 0.47152081021526315
000770 99 7d 3a 6f ea b5 e5 bf 3a ae 5c cd 8b 2a e3 3f
       -0.6784565136367063 0.5989436160065857
000780 6a 5c 82 56 92 04 ce 3f aa 1b a1 26 57 d6 f6 bf
       0.2345145151527704 -1.4273292073209896
000790 ab 47 8d 61 0c 50 e3 3f 90 dc 91 88 6c 47 da 3f
       0.6035215287504249 0.4106093724908044
0007a0 1d bb e9 0c 77 3f e0 bf 64 ad 8a 6c 9a 51 e8 3f
       -0.5077471973616842 0.7599613304095496
0007b0 47 9b 74 a1 76 c2 f2 3f 12 8a c0 ce ec 21 c7 bf
       1.1724764162879227 -0.18072280974691118
0007c0 b9 45 a5 7f 81 52 d0 3f 4f d4 e6 25 35 c0 ce bf
       0.2550357576884284 -0.24024071074168993
0007d0 04 83 be f9 21 e5 f5 3f be 3d 3b d3 29 c2 e7 3f
       1.368440604747037 0.7424515843976491
0007e0 7e b6 9e 16 2c 34 e5 3f 6c a4 fe 89 a9 e9 d2 bf
       0.6626186792179423 -0.2955116126636941
0007f0 12 07 b0 11 1a 2f f1 3f 78 fc 94 81 7b 7a fb 3f
       1.0739994707987006 1.7174029409214011
