Granger-Inspired Clustering (Synthetic Dataset)/Synthetic Data Figures and Data/effect_ts_constant_weight_constant_noise.npy (npy, 144128 bytes, 1 tensors)

array f8 [18, 1000]
00000000: b4dc b88d 8e86 e83f 8851 85ed 13aa c2bf
00000010: a2e8 bac3 7b23 f83f 339a e767 8f06 f23f
00000020: f8c8 3bd8 aff1 0240 01be a76e 2ef2 f83f
00000030: aec4 b9d2 d91e e0bf a1c7 8b54 3ec5 0840
00000040: e1d8 c29b dac2 f8bf dcea 0f0e 90be e03f
00000050: 028a 9a19 9c24 d93f 282d e6be 221b d2bf
00000060: c8d1 d882 c035 7ebf a8e3 1481 e0f3 dabf
00000070: b255 4f0b 9f04 e5bf b2e2 cc07 4712 ec3f
00000080: 9fb8 e168 f59f c7bf aa3e 3de7 d1a0 eb3f
00000090: a034 782b 44c7 e4bf 2299 cb22 ee34 c53f
000000a0: f531 c7a2 b94a dfbf a9e8 caa4 526a b83f
000000b0: fdf1 376e 6441 ddbf a623 a268 d879 f13f
000000c0: f6c2 eba6 de4c e2bf fd39 68ec 7a50 c83f
000000d0: 07a1 3a22 aaa1 f13f b72f 29d3 8f2c e73f
000000e0: 72ea a76f 6c59 e1bf b9d7 15a7 238d d4bf
000000f0: c275 0688 17fd d6bf 3862 68d1 a70a 0440
00000100: 8057 b1cb 5987 9bbf de86 3c9a 3720 e9bf
00000110: 58fe 695d 0ee2 b03f 48b1 5751 3597 ce3f
00000120: 11a9 5f22 f411 d8bf 5648 15e2 6478 f2bf
00000130: 387f 001f f706 7dbf 170c d8f8 2038 f93f
00000140: 483f 7b78 f8d4 e3bf 448b e3a8 9deb f93f
00000150: 153e 4d7a aaf0 c93f 179f 8c4d a8eb d43f
00000160: de5e 1833 6407 f43f dfe3 48b2 1917 f3bf
00000170: 5c87 97f6 ef3d e5bf eb85 4929 cf1f f6bf
00000180: 8e4f 99ae 5dcf 0240 868d b0e7 783e e7bf
00000190: 68d4 9006 4556 e33f 8468 a5e5 fc81 00c0
000001a0: a798 9794 b9bc 02c0 6413 a64e 212c f43f
000001b0: 9f2e 35b4 a744 d4bf bbae 9d34 59e6 e23f
000001c0: 9e83 a6b7 b9f2 cdbf 1084 0e01 9cee 0140
000001d0: f8a4 b629 d5ba c9bf 1645 882c 23d4 c93f
000001e0: 2971 aacb e773 ddbf 18a8 a0de 9927 0140
000001f0: f629 1a11 307e 0440 00ff 63a9 783e b1bf
00000200: 1cf6 8162 2a07 e23f dc70 670e c70e e63f
00000210: 512a 1946 40b2 e63f f3bc 2b72 221c 0040
00000220: 6c9c 2276 c58d 0140 2c43 b4f6 f59c fcbf
00000230: 0e77 4d8b a603 00c0 e651 faff 68b7 f3bf
00000240: 7499 ebc9 3817 0340 f0df bf8f 21ea 0340
00000250: 099a 7d24 0967 eebf d20f b8fb a78e 0040
00000260: 1ec2 a14e 820f eabf 8ec2 8837 6215 0240
00000270: dc8e 8edf 171d c5bf f692 7abe 0edb d73f
00000280: 189f 7390 e259 c4bf 63b0 57c7 85b7 c43f
00000290: ca5d 8f27 e0d9 e83f 209b 1ce7 970a d43f
000002a0: 469f 9634 be72 f13f 33ad f0ad 2ce0 f73f
000002b0: 4203 de36 d8ac dd3f 8803 b946 1fc0 d03f
000002c0: 3894 1cf2 919f dc3f 137b 9668 175a e0bf
000002d0: 96ff d36d ecc9 e1bf 65cf d65c 717a d2bf
000002e0: 26eb 2a26 a9a7 f6bf 1945 f580 9e2b e6bf
000002f0: 509a d747 22b2 cfbf 7dec 7de8 a306 ebbf
00000300: e096 efc4 c7f3 e03f a282 d02e 2e49 f63f
00000310: 1915 1f03 1c14 f23f c595 669d 1c44 02c0
00000320: 84ab b427 135e f03f de0e e143 fcd0 f63f
00000330: a4b6 2e31 4991 cb3f 01e1 3c04 cfc4 edbf
00000340: 0a15 1792 37a5 e93f bc41 f953 f65c 0640
00000350: e955 141d 3939 dfbf 2b3d ad40 9590 f23f
00000360: f235 115f 2191 0240 6ef8 ca82 bf41 cdbf
00000370: cc12 8e58 ac4a ef3f ea34 ce85 f492 f93f
00000380: 912e 68ab f7ff 0740 ca53 02fe d08f f0bf
00000390: beed b4b4 6627 e3bf 15bf 6068 2e87 00c0
000003a0: 2859 0608 3377 08c0 402e 53b8 a203 ef3f
000003b0: 4c91 2bc7 1a07 ebbf eb9f ba61 8b7a fbbf
000003c0: 2a53 bf26 8e23 ed3f 4281 99da cb7e 0040
000003d0: 8a67 f8db 4add dd3f 8575 01eb 108d ed3f
000003e0: 1632 c338 9480 e3bf 1236 cd35 9430 dd3f
000003f0: d805 c87d 3a7e f0bf e8ac cf3a e9cf f03f
00000400: 3c30 16c8 ad29 e0bf cfd8 7f5f 380c fabf
00000410: dc09 c06b 70bd d0bf 6781 8526 cd9a f23f
00000420: 982f 4ce3 0877 e7bf 5a05 0c91 e178 febf
00000430: d983 7c9b 6ec2 fd3f 7419 92c9 c6a1 fabf
00000440: 982e 5d85 1c22 b7bf 7acf 1573 53e0 d53f
00000450: 57f5 0bc9 0f46 e23f a016 b2ba eee8 9a3f
00000460: ccf6 39fa 46e3 bbbf f8de 5fa2 d818 fdbf
00000470: f478 f619 84d1 ed3f 9d2e 055b 590e 0140
00000480: 9030 d9a7 21c8 dc3f 10ee 3f08 6679 ea3f
00000490: 9ee0 c25b dff6 e63f fcf1 f2d5 43ed f8bf
000004a0: 9876 c523 81d3 fabf c051 0cb7 d3d5 fd3f
000004b0: eccc e575 6c33 b1bf b094 ad2c fd56 e0bf
000004c0: 3ec4 a620 0dae e3bf 9cd7 bc05 d512 1140
000004d0: e00c 22b0 28b8 bc3f 53b2 a1c5 5288 e8bf
000004e0: 86a6 b0ec 0c45 d33f 74bf 6285 30dc d93f
000004f0: 8a43 5445 ac66 0340 a23f a1b9 c44b e4bf
00000500: b87c 6d04 c380 c63f d779 1a47 22b6 cebf
00000510: 7a06 a744 0981 f03f 10cb 0068 aede e4bf
00000520: 5a33 8bbb 72e9 d6bf e73e a4f2 45e0 e83f
00000530: 4b8a 3da0 6b02 e9bf 44a8 32de 7f71 d23f
00000540: b468 c40f 7d36 dfbf ec3d f8d8 70a6 ccbf
00000550: c8b5 d025 2a8e f23f 9435 64d4 593d f9bf
00000560: 07cc e3a1 65a1 d3bf 3231 0180 ab0f 0140
00000570: a022 8a92 fc38 c33f 7629 9d4d 7209 0540
00000580: c643 5438 d552 f13f 10fa bea2 5db0 e1bf
00000590: 8e3d f043 3727 cc3f a220 162d 3af6 0b40
000005a0: 38ae 6b57 a879 c4bf fa15 44dc 7f6a 0040
000005b0: bc6c 5b7b f0ec e93f 210f 4f38 fe3b f03f
000005c0: 6475 30e0 ff28 e3bf 52cb 0ed8 8fe5 f2bf
000005d0: ee64 e971 7b29 f93f cad8 5f76 594f f93f
000005e0: 6891 1f14 9f12 b53f f6d7 59cc 687a de3f
000005f0: 89ab f3cf 48a6 f43f 9c08 a1a8 ffa8 e93f
00000600: 2ccd 252f 77f8 dcbf 684d 874f e517 e0bf
00000610: 6379 325c e1a8 d9bf c12c fdf9 2063 ea3f
00000620: 97cd e5a6 39e6 ec3f b0ac 0a78 155b e53f
00000630: 060c fd6a 2445 f73f 19c2 ddc1 fcc2 e2bf
00000640: 05e5 c721 e3be e23f 13c2 b933 1f05 0440
00000650: 06c2 9345 d547 f93f fcd9 431f 21c0 c53f
00000660: 0378 f325 0ac0 fcbf 0848 e5d9 4b43 cf3f
00000670: f672 525f 1f57 fb3f 5c81 4392 f224 0040
00000680: 8282 76c2 2e13 fc3f 2ca4 8f16 957e d6bf
00000690: d8db 7cd1 324c dfbf abae 1e19 36db c6bf
000006a0: ffa2 b6ce 8144 f03f 257c ebf2 6ebe fc3f
000006b0: 6133 ad86 0b82 dabf a8f4 5caa aa81 b63f
000006c0: eaf1 4bd4 78ab f73f 16e8 abf8 adeb e03f
000006d0: 6ed6 e5f0 4139 fa3f baee 3378 5738 0dc0
000006e0: ee93 28fc 458e debf 1027 1711 0612 bc3f
000006f0: 0ee6 b4eb 96ac f3bf 36aa ceae a439 d1bf
00000700: 30dd 7199 dade f8bf c835 035f f59b d3bf
00000710: da6f c81f c1a9 c23f c27b c893 f920 f53f
00000720: b1ce 8d13 0a94 e1bf c3ce ca2c 093c f13f
00000730: 32dd 56f1 c888 0340 e0c4 50b0 8a63 edbf
00000740: 1a80 2582 03d1 d5bf 8273 5dcf ca5c dcbf
00000750: 84e6 806d 8950 f6bf d680 8629 aa89 ed3f
00000760: 2d24 5e3c 74f7 e5bf b04b 4c4b e73a ca3f
00000770: 3924 7fc4 ea8b 0740 4c70 d678 0b95 f93f
00000780: 02f4 7945 bf22 ecbf 4a34 b700 f624 f33f
00000790: 3ef2 cce8 5f2e 0140 4ac0 7ace 5fb2 dc3f
000007a0: dfb6 3c47 8187 e4bf 248e e839 0285 e53f
000007b0: e458 83ec 4e8a c4bf 07d4 4f50 5f52 e73f
000007c0: deb6 b7c8 91b8 f63f 8f51 e465 6616 e2bf
000007d0: 3ab3 d820 c840 0240 3f7a 8cc5 4cab 0640
000007e0: d37f 36cb 1d3c f1bf 948d 6fb6 5bac c6bf
000007f0: c65e fec8 bbc2 fa3f 310a 1653 11db e23f
0.7664253967294798 -0.14581536386198146 1.508662952967406 1.1266016062524045 2.3680111783261246 1.5591263124914578 -0.5037659755454535 3.096310291782132
-1.5475717625063725 0.5232620501186278 0.39285948276861415 -0.28290623323910546 -0.007375480648580575 -0.42113506894707564 -0.6568141194244872 0.8772311355924869
-0.18456905003717325 0.8633813396827084 -0.6493244980826098 0.16567780207623978 -0.4889358605985586 0.09537235759026665 -0.45711622966317106 1.0922473990669714
-0.571883512513607 0.18995605986897593 1.1019688927718236 0.7241896747814199 -0.5421659642009458 -0.3211144572918517 -0.3591975048419408 2.505202899930989
-0.02688350969068365 -0.7851827633314448 0.06594934254280227 0.2389895102672972 -0.3760958038025289 -1.1543930846569501 -0.007086720768739778 1.57620331959402
-0.6197473862793936 1.620023402902647 0.202657041280404 0.32688338826345514 1.2518045421510844 -1.1931397403952742 -0.663810712456534 -1.3827659237653005
2.351252903035806 -0.7263760113896047 0.6042809608685618 -2.0634706441024395 -2.3421508415950316 1.2607739517418048 -0.3166903743592488 0.5906187083869193
-0.2339698931437199 2.2415084917597667 -0.20101418053426534 0.20178641962460436 -0.4601993073390696 2.1443364517954357 2.561615117655715 -0.06735948691857274
0.5633747028329625 0.6893039017991458 0.7092591637713871 2.0137375754926494 2.194224284106488 -1.788320506752096 -2.0017825015082797 -1.2322778700955666
2.3863387846969832 2.4893218260221985 -0.9500776016910218 2.069656340174313 -0.8143931899813344 2.2604412401781877 -0.1649503556810633 0.37274521447606845
-0.15899307301810306 0.1618506644584868 0.7765961430222259 0.31314656800752694 1.0905134252770536 1.4922301096474484 0.46367459638718256 0.26172620684160863
0.4472393860217525 -0.5109974901896258 -0.5558988709526484 -0.28872331682509006 -1.415932797520051 -0.6928246039116487 -0.2476237154762253 -0.8445605793816778
0.5297583433536737 1.3928663090411324 1.129909527009039 -2.28325770348849 1.0229674864774276 1.4260218287972104 0.21537127400863654 -0.9302744944352811
0.801418099720338 2.7953917084161883 -0.4878676208475939 1.160298588412682 2.3208644320609375 -0.2285689724575976 0.9778653840627043 1.5983777262475152
2.999984110943679 -1.035111419890415 -0.598559716170193 -2.0660064844631827 -3.058202803319677 0.9691938018890554 -0.8446172609369937 -1.717418081048886
0.9105902439865521 2.061912257966612 0.4666316173694375 0.9234699811892574 -0.6094456776277777 0.4560900235563575 -1.030817500432354 1.050759534579635
-0.505087748331341 -1.6279834490247145 -0.2615624477622569 1.162793302988655 -0.73328060525954 -1.9045119920632119 1.859968764656733 -1.664496219049025
-0.09036424880940286 0.3418167709235075 0.5710524489110566 0.026279192109106675 -0.10893672570270069 -1.8185659735444784 0.9318256861768348 2.132006369681973
0.44971505538411183 0.8273191605689494 0.7176358024799077 -1.5579260213263515 -1.6766368291204454 1.8647038603131563 -0.06719091299401087 -0.5106187698953786
-0.6149964940760879 4.268390741015448 0.11218504238245286 -0.7666410312645645 0.30108950723897754 0.40406430269194193 2.425133268007305 -0.6342490792830981
0.17580449787326358 -0.23993328544470557 1.031502979444126 -0.6521827727613942 -0.35799854578799783 0.777377103719087 -0.7815454606719155 0.2881774587536976
-0.4877007154442581 -0.2238293704435671 1.1597081639441615 -1.5774782463589405 -0.30672589120439436 2.132651329075224 0.1501765933537813 2.6296125472628615
1.0827228737218646 -0.5527790239937662 0.21994677369410137 3.495228149640824 -0.1599626948221713 2.0520016868856574 0.8101732644385247 1.0146467399180852
-0.5987548235604376 -1.1810453834302348 1.5726274919200551 1.5818724273681704 0.08231539002696808 0.4762212749113809 1.290596782981739 0.8018797200714007
-0.452665134470595 -0.5029169610301496 -0.40093263629559867 0.8246006853672939 0.9031036624641499 0.6673686356129078 1.4543804339634803 -0.5863021646928842
0.5858016643316267 2.5025009194435 1.5800373761995856 0.16992582346547624 -1.7968846781218424 0.24424121989665104 1.7087701533811788 2.018040793118571
1.754683265324417 -0.35147597506744677 -0.4890257879046067 -0.1785647986083537 1.0167253565543317 1.7964925278718138 -0.4141873183441956 0.08791605624442644
1.4793632786596569 0.5287694794526512 1.6389789018698155 -3.6525105849121617 -0.47743367791036817 0.10965001981017175 -1.229636116723103 -0.2691432673551931
-1.5544076913773317 -0.3063939502579527 0.14580549289610084 1.320550515439877 -0.5493212110436244 1.0771571874328607 2.4417895178445628 -0.9184010928785504
-0.34088218412034765 -0.44316358805172495 -1.3946623113137386 0.9230547724764857 -0.6864567927415287 0.20492259194051377 2.9433188773441796 1.5988878936978095
-0.8792415959320581 1.1965236690478087 2.147643870119537 0.448387099876531 -0.6415411368704688 0.672486413099652 -0.16047083424081798 0.7288052147474681
1.4200609055073339 -0.5652343740535332 2.2816317144519447 2.8336425240989054 -1.0771768510821758 -0.1771349564361172 1.6725423671068014 0.5892416594290976
