Granger-Inspired Clustering (Synthetic Dataset)/Synthetic Data Figures and Data/effect_ts_decreasing_weight_increasing_noise.npy (npy, 144128 bytes, 1 tensors)

array f8 [18, 1000]
3.8350362591074685 1.379036367268438 0.21439270431604024 0.3486505625983517 -0.4415754771518658 0.782314806024512 0.2737448889496422 -0.6854232273088195
-0.1141082305652149 -0.7077626671186907 0.18052319136608252 0.7080374422799822 -0.2914644212284276 0.37361856412608563 0.42263363911498397 0.7589386295837484
0.09381687848680406 0.013503614684767351 -0.30998150265323376 0.799584163876094 0.43128035084901256 0.5526315783694687 0.6851779717518971 -0.4775878392351106
0.6261697206594352 0.8208645253057287 -0.043720124661089654 1.4548942869682986 1.1112888207653868 -0.5973073809424856 -0.6520106222700054 -0.9904113901448146
0.14155357098205582 -1.19201471754412 -0.11472984769627573 0.541012956290211 -0.72744743489157 0.8130488432460874 -0.5354896206425732 -0.6461962114828141
-0.30012042280694873 -0.2013976985438182 -0.8400377892723458 0.36587019699687195 0.9657541489251017 0.2564119769965161 -0.20527898111043655 -1.5133939129046128
-0.0807104800738395 1.9956438708151714 0.4669218762490884 0.021398625731199022 -0.6922569245941953 0.805301537399197 -0.02023003310678778 0.32605596204210385
0.05218573885726152 1.4493528095243955 1.2924553499261375 1.3132723929836367 0.31246077380225756 -0.2861839554753918 0.26259479157678933 0.9813063755816562
0.8704346092414661 -0.24040413879554928 -1.0137951505008014 -0.7081869413802037 -0.22205561371915394 0.42704068656722294 -1.1206552917991814 1.0969072075600774
0.6320216625888573 1.024056602144572 -0.28443700095279534 -0.001355292468106159 0.6011488130870137 0.13870187031875772 0.1297103580105627 0.5652959698966105
0.8824225663932084 0.30509764159111963 0.6781081087134759 0.7560052544040055 1.4393711712640442 0.19748518850566832 0.13877590843650478 0.11962561895193205
-0.6208420470025753 0.1699240365001537 -0.632419522595885 0.03315803752628935 -0.1090274027763396 1.1007911226449179 2.3487570118956436 0.37619279525369353
0.38690402680070296 2.421763556834622 0.24835258203869554 0.30358118612324636 0.5461336274836323 1.7329286070800267 -0.38383979263460294 -0.44710584533185765
0.8940698286238595 0.230356205572971 1.9339486807642923 1.2093891659105533 2.820350591458084 0.607861113491607 -0.5597201546938289 -1.1396586654524878
-1.1003851593014136 0.04239245859241855 -0.3295988013842563 -0.3164416970628879 0.5706592156270005 1.9354532406635663 0.8959134127334818 -0.6731039154486491
0.31763814684813585 0.31175598709421076 -0.3862075963407745 -0.40162233676544545 1.0218307697656415 -1.3544662635602147 0.36464568785049506 1.4864801712906566
-0.11992392478042355 -1.3127224459251974 0.9754030923718253 0.39223619513503805 -0.6040580841094486 -0.1034252850719834 0.3964763867711466 0.6533143993539027
0.4741876586570267 -0.9590411337013108 0.7312779162662983 1.6585984949770771 -0.5400856345509161 1.0983658826990597 0.8766986726829848 -1.0744860795754412
0.051223460857744596 0.09907692182325145 -0.0907108422151709 -1.18993071027721 -0.8388885763164726 0.7558919013405688 0.8413733288314531 -0.4056693656150041
1.2835922163794655 1.849477671502299 0.9782406157430497 -0.8807856975413452 -0.4460219809816253 -0.42705384428486404 0.6056917364372298 0.06435561455138905
0.2838457123322923 0.4992347618737614 0.19572761603509126 -0.5880002356144313 0.36489658726361324 -0.860711373576829 1.3435237979718546 -0.2597589443256667
-0.3086958471385139 0.7671503183239726 -0.7597308249021717 0.6731284945704359 0.7083229414215169 -0.2792173405278194 0.22594744920367135 0.6971250337278379
0.9234026301347295 1.0921580317755448 0.3737614262196558 1.1113125296359205 -0.10076929489402181 0.607910580518721 1.4109772261586717 0.19212501506143206
-0.7480829519332135 0.8547708377230733 0.37458387192099446 0.028506439269826794 1.2402487008760466 0.15563116190935308 -0.12396561203899553 -0.10870064807854513
0.24127832274794186 0.47867652913636727 0.1652153362027139 0.23960958888663225 0.6685938240283348 1.6819969446384317 0.48935055885682 -1.098777030702219
0.11028045014954657 -0.37255419322113564 2.871139232606969 2.002441746699776 0.7452616170590113 0.47118932895247856 0.6931800414722612 -0.09469998343725108
1.4550702082768878 0.5456484308317331 -0.9676639378548759 1.2828492450137319 2.1693338407926466 0.9376010363592578 1.1845535457780074 -1.8448228750671114
-0.6992073622432637 1.7022730405850675 0.42684931380345154 -0.31961388350449427 0.028514074781796704 0.06787786203124715 0.17820997818596196 1.691147962564255
0.07737229538815527 -0.11462880897488252 2.0810321072813895 -0.14372958303271716 -1.5221235301557134 0.13554212141616956 -0.4961573146294821 0.5532046138933636
0.11062299293068004 -1.2106343535120083 0.17262257285896243 1.0381064273774274 -0.23327150224096255 0.54420537330659 0.9153891016377127 -0.3087857122195326
0.23252551948782585 -0.6090934081931094 0.5563217362214177 0.8222507413565077 0.44337053229532225 0.3873477357920454 1.0242595952175582 1.7226923431852534
0.05981965752016255 0.17371471977178704 0.6827566141984066 0.5205237929722447 0.7492167596712884 1.309185163845139 0.9106175510769882 2.3675632021594555
00000000: e0b9 7e7d 27ae 0e40 f499 1670 8810 f63f
00000010: fee9 c45a 3871 cb3f 0ae2 0573 4a50 d63f
00000020: 8f4d 45ca c542 dcbf dca8 610f b908 e93f
00000030: 6a18 5f48 0985 d13f 95b9 26b1 fcee e5bf
00000040: 0766 7b6e 3236 bdbf 2858 93e4 fda5 e6bf
00000050: b01e 8b49 621b c73f cef3 5d23 3ea8 e63f
00000060: 1fea 4763 5aa7 d2bf ac66 86d6 5de9 d73f
00000070: 7a0d 8cf6 6d0c db3f d876 37aa 3949 e83f
00000080: 9ee3 e908 6204 b83f 8044 977b c8a7 8b3f
00000090: 48ad 10a8 bcd6 d3bf 1dea 4787 3196 e93f
000000a0: 5773 93e6 189a db3f e9ad 7a6b 28af e13f
000000b0: f8a5 935a faec e53f d2da 9e95 cc90 debf
000000c0: 9049 ff14 9509 e43f 364f 54ae 8544 ea3f
000000d0: 605e 31f3 7b62 a6bf 45a8 5a3b 3f47 f73f
000000e0: 5a90 59c9 d6c7 f13f 22d6 595e 241d e3bf
000000f0: c36a 6961 45dd e4bf 8440 483a 73b1 efbf
00000100: 2dfe ff6a 6d1e c23f 263e 4306 7e12 f3bf
00000110: 5206 bb6f ef5e bdbf c951 3f67 fa4f e13f
00000120: 6463 cdd7 3f47 e7bf c85c f901 7f04 ea3f
00000130: ca3b 0021 bb22 e1bf e8c4 63ad a3ad e4bf
00000140: 8852 344a 2c35 d3bf 7920 5e58 66c7 c9bf
00000150: 1086 0aee 96e1 eabf 6ab0 abd4 6a6a d73f
00000160: 0d82 b33e 75e7 ee3f e82c e0c7 0d69 d03f
00000170: a977 36e7 9446 cabf a740 1e89 dc36 f8bf
00000180: d791 5c28 71a9 b4bf fcd2 7944 28ee ff3f
00000190: fdb6 114b 0ce2 dd3f 2885 c776 85e9 953f
000001a0: aff8 71fe f726 e6bf ce89 d1ba 07c5 e93f
000001b0: 90d3 5c8a 2eb7 94bf eebe 68d3 19de d43f
000001c0: 2048 6bd3 16b8 aa3f 315e 5492 8c30 f73f
000001d0: 6591 37a9 e5ad f43f 8aab a9e9 2903 f53f
000001e0: 00de 3079 5bff d33f d507 5a82 d650 d2bf
000001f0: 1606 7b62 5ace d03f 1e58 cfa0 dc66 ef3f
00000200: d4f4 7fae 99da eb3f 4697 f914 90c5 cebf
00000210: d1e8 8343 8138 f0bf f1d4 15a9 77a9 e6bf
00000220: a492 687f 516c ccbf e886 b775 a254 db3f
00000230: 80de 453e 34ee f1bf b879 7392 ee8c f13f
00000240: 96d8 657e 8539 e43f cf6b f72c 8962 f03f
00000250: 3a55 3740 3734 d2bf c013 ee34 8234 56bf
00000260: 369d 876f 9c3c e33f 61e0 749e fbc0 c13f
00000270: fecc cd58 599a c03f 8487 e892 e716 e23f
00000280: b428 fd3f ce3c ec3f 1e1e 2e42 b886 d33f
00000290: 1475 c2c6 0fb3 e53f a09e 68ee 3131 e83f
000002a0: 0826 b610 aa07 f73f 40c2 09d5 3147 c93f
000002b0: a88e 1ab2 68c3 c13f e28c 29d9 c89f be3f
000002c0: bc72 fb23 f0dd e3bf b646 c921 12c0 c53f
000002d0: 1dd7 dcdd c73c e4bf b4c6 8c1d 17fa a03f
000002e0: 80cd 4a49 38e9 bbbf f2ca f726 d79c f13f
000002f0: 62bd c21d 41ca 0240 7ebf 26f2 8a13 d83f
00000300: b92e 731b 09c3 d83f a5fe 5992 c55f 0340
00000310: 8ede dd74 04ca cf3f 8622 85c8 df6d d33f
00000320: af37 a93a ed79 e13f 8162 db58 13ba fb3f
00000330: f937 11c7 d490 d8bf b33f e3d5 619d dcbf
00000340: 22f4 4854 389c ec3f 8deb aee8 4f7c cd3f
00000350: 5166 002c 74f1 fe3f 8b8f 3b74 a859 f33f
00000360: a988 8cf8 1390 0640 709c 5e26 9973 e33f
00000370: 484e ea3d 3ae9 e1bf 058b 8bb9 0a3c f2bf
00000380: ce40 0378 2d9b f1bf ecc0 80de 76b4 a53f
00000390: 6bc1 2f92 2518 d5bf 3574 feac 9440 d4bf
000003a0: 66ed 881d d742 e23f 5065 39d1 9df7 fe3f
000003b0: 249e f79a 52ab ec3f fc2a f538 118a e5bf
000003c0: be2f 2bf3 2e54 d43f a3b7 3962 cff3 d33f
000003d0: 7c06 f010 a0b7 d8bf 400b 702c 2eb4 d9bf
000003e0: fa09 a338 6b59 f03f 4b6c 18d1 e4ab f5bf
000003f0: cf7f fcdd 5a56 d73f 9888 9d6e 9fc8 f73f
00000400: 2e9c f096 55b3 bebf e594 5f40 e900 f5bf
00000410: acef c48b 8036 ef3f ca65 9ad7 651a d93f
00000420: d14d 849e 7154 e3bf 7cb1 f658 147a babf
00000430: 625f b47e de5f d93f 7f63 6799 f3e7 e43f
00000440: c651 8631 1759 de3f 3382 1808 77b0 eebf
00000450: 2cd3 d4f1 a066 e73f 1ef1 5193 9e89 fa3f
00000460: 5ff0 2dab 6148 e1bf 0fc1 931a e892 f13f
00000470: 46d7 f35f ea0d ec3f 568a bc50 1831 f1bf
00000480: b809 5822 f639 aa3f 30eb 04eb 1a5d b93f
00000490: 38ef b464 d338 b7bf c158 d2c8 f409 f3bf
000004a0: 508d 08db 2cd8 eabf 4335 7236 4430 e83f
000004b0: 0cd9 61c2 87ec ea3f 788d 93a4 7cf6 d9bf
000004c0: d6ff ebfd 9789 f43f be8d 1ce6 7597 fd3f
000004d0: 9687 8743 bf4d ef3f 2130 b77c 652f ecbf
000004e0: e93e 67c7 9f8b dcbf 8e69 b5a5 d954 dbbf
000004f0: 4292 eea2 d361 e33f 30ec cf0b 9c79 b03f
00000500: e2ed e434 872a d23f b98b d15b 76f3 df3f
00000510: c4ba e53e 9a0d c93f 0923 c0de e5d0 e2bf
00000520: d907 2e37 775a d73f d6d8 1994 f28a ebbf
00000530: 3efd 5acf 127f f53f e838 aefa e39f d0bf
00000540: 5bbd f739 acc1 d3bf 9128 0ad3 7e8c e83f
00000550: 48f9 d604 b74f e8bf 8cf1 c5c4 448a e53f
00000560: 9a2e 8ddf 94aa e63f d1c1 8268 b2de d1bf
00000570: c3e1 7894 d8eb cc3f ceaf a228 d94e e63f
00000580: 6f02 2fac 838c ed3f 96a2 48b3 7a79 f13f
00000590: cca9 870b b5eb d73f afbd a6a5 efc7 f13f
000005a0: 04c4 023a 04cc b9bf 8c0c c7e3 0074 e33f
000005b0: 6209 1cdb 5c93 f63f 8357 3770 8d97 c83f
000005c0: 02f2 a7a8 4bf0 e7bf 3f0b 335f 485a eb3f
000005d0: 519f e0a1 2ef9 d73f e8a8 8ec1 ca30 9d3f
000005e0: a9b4 9205 0fd8 f33f bfcf 51cf b8eb c33f
000005f0: 7c3e 89d9 35bc bfbf b425 8d40 ced3 bbbf
00000600: 8ad3 b744 35e2 ce3f 2839 80e1 a2a2 de3f
00000610: 0ce7 e4b0 c625 c53f 56bd 09ea 86ab ce3f
00000620: ff4b 10e0 1e65 e53f 921a d3a0 75e9 fa3f
00000630: 7a70 a401 8551 df3f 6e64 4739 9794 f1bf
00000640: 48cc c7ee 563b bc3f 19d6 f78a edd7 d7bf
00000650: cb79 92d8 17f8 0640 e6c3 b12d 0005 0040
00000660: e170 07e4 2ed9 e73f 22ce 8449 f727 de3f
00000670: 09a0 0be9 872e e63f c273 cb13 423e b8bf
00000680: 26ee deb2 f747 f73f 0227 b1b2 f375 e13f
00000690: 5c5e d35c 1af7 eebf 2d84 10ee 8c86 f43f
000006a0: e17b 62b3 cb5a 0140 a17a 7be3 d300 ee3f
000006b0: 5aa3 376b eef3 f23f 0a37 b5fd 6484 fdbf
000006c0: bca1 3e1e e85f e6bf 37ce e2a7 823c fb3f
000006d0: 81c6 c6c8 7f51 db3f 76f5 3fca 8d74 d4bf
000006e0: 8670 a72a cb32 9d3f 6aee 8b8d 7160 b13f
000006f0: 1496 10a6 95cf c63f 7091 7e2a f10e fb3f
00000700: 00ff 4eb6 abce b33f 4bff b949 5058 bdbf
00000710: a498 5529 f4a5 0040 2eef 4b21 bb65 c2bf
00000720: 8fda e733 9e5a f8bf 9e40 5bb9 7159 c13f
00000730: c64e 009c 0ac1 dfbf bf62 9529 dab3 e13f
00000740: 3aaa d2d8 c951 bc3f 8af8 bb20 c25e f3bf
00000750: fc84 7d18 7f18 c63f bba7 357c 159c f03f
00000760: 565b 9b30 d7db cdbf c918 1563 216a e13f
00000770: f0c2 d415 de4a ed3f 111e dd25 25c3 d3bf
00000780: 7cc2 d76e 65c3 cd3f 32c1 8c75 b17d e3bf
00000790: 68ff e33d 63cd e13f 549d 67c9 e04f ea3f
000007a0: 3ffc 0dcc 2e60 dc3f d403 5a28 4eca d83f
000007b0: 822d 8107 5e63 f03f eacd b0d8 2590 fb3f
000007c0: 58fe 69a1 aea0 ae3f f276 20b0 483c c63f
000007d0: db83 2366 24d9 e53f 9d61 7383 21a8 e03f
000007e0: a2e7 0c6d 95f9 e73f eef8 7124 6cf2 f43f
000007f0: bb41 216b c723 ed3f 37e7 e3f9 c4f0 0240
