Granger-Inspired Clustering (Synthetic Dataset)/Synthetic Data Figures and Data/effect_ts_decreasing_weight_constant_noise.npy (npy, 144128 bytes, 1 tensors)

array f8 [18, 1000]
00000000: 0e22 ec1d aa17 fd3f 960a efee 8cca 0d40
00000010: e097 300e eccc b73f a8ca da33 2d87 cbbf
00000020: 64ce f87a 6d29 b8bf 2881 3de0 248e e93f
00000030: 1000 f3d1 7ea2 f23f a644 d981 f6d6 b53f
00000040: 928a cc60 f83a f23f edb2 6c7d 8450 fbbf
00000050: 8bd1 b0fd 2f2f c3bf 52e8 900a 3bef e1bf
00000060: bac2 9514 e1d2 c33f e10b 36ba 5727 f7bf
00000070: 46c2 a935 a833 cc3f 1804 6e97 778c e0bf
00000080: d1cf 323c f9a4 0740 a826 84dc 95be b33f
00000090: 82f8 2cb2 8c42 f93f 99e2 bbd4 b2a2 d53f
000000a0: 1496 30cf 994e ed3f 9dc4 d40c 1790 f7bf
000000b0: e075 df61 32e6 f23f 7c1c 9830 e19c 0440
000000c0: 38a7 5e30 be37 00c0 2507 5541 9a52 e13f
000000d0: 10fb 6478 9c14 f23f 56fd 292c 5b39 0140
000000e0: 22bb f3ae f6e2 f13f 5c53 0700 88ff ea3f
000000f0: cf5c b4f1 5a78 f3bf f9e9 5e04 cffa 04c0
00000100: 6c9f f54a f54d ed3f f04f ae70 3867 f43f
00000110: 06e7 3c6e fdcf e8bf fc5d da29 9b5e eb3f
00000120: 4aaa 4d6c d159 f43f fae7 6d96 f074 f7bf
00000130: 0502 965d 16c9 f53f 9e7d 22d6 49c8 e0bf
00000140: 2427 0768 c0a4 e5bf 9868 6e27 fd85 8abf
00000150: 807a 1510 fb14 7fbf 44d5 0200 7e9a ed3f
00000160: b61d 88f8 74b4 fd3f a4ee 2ede d52e 0240
00000170: df64 6edd 8940 ea3f ff43 78ac 0871 f03f
00000180: 30e0 f5ac eca5 cb3f 7934 f5ae d86f fa3f
00000190: 20b9 46d6 ae6d a73f af3e 4537 cc6e ddbf
000001a0: cf6f 2ec0 fff2 e43f 2fd9 52f2 a138 e03f
000001b0: fc83 eb04 8d21 d13f 4497 99ff da70 cebf
000001c0: 133c 005b fa42 0040 94af 7a1a 095d b8bf
000001d0: 1353 99e2 9f6d e03f f904 4020 947f fb3f
000001e0: 4a0c e25f da07 fb3f 419f dc22 1e64 e73f
000001f0: 26d9 6502 b3f6 ea3f 99d0 06a4 fd7a ee3f
00000200: 8abf dfdc 77ae eb3f 68ed b7cc 9829 c93f
00000210: 4441 bd5e 444b 03c0 8094 747f 3843 883f
00000220: 4a8b b65e 6d2e e0bf 6079 a264 0364 d5bf
00000230: fb92 1d10 3222 f33f 82e3 0f84 109f f9bf
00000240: c4ed 7f30 10d2 0f40 7c08 edae b983 d33f
00000250: 021f 2541 e238 0940 01cb e8e6 383d e0bf
00000260: 8a8a 36c2 f4cb d3bf b662 5581 4340 f83f
00000270: d004 17f4 b60b 7f3f 7f6d dbcf db86 f3bf
00000280: 2659 0113 f51f f83f 958e d4e3 b66b 0740
00000290: 71dd b728 fae0 e33f 120a 72e4 cbad f5bf
000002a0: 682a 9934 9bc2 b23f 0a6f 2dbe 01f1 e43f
000002b0: 2074 eb25 c8a5 d9bf 8456 9561 aa66 0540
000002c0: c053 bda0 0e21 9fbf c747 a595 cbfe d3bf
000002d0: d4d8 7972 95fe c43f 3855 97f1 05a9 ba3f
000002e0: f37f c760 e251 e13f f524 1fb3 d772 d4bf
000002f0: 2a64 fba3 2e11 f03f 5451 84e4 bb54 0a40
00000300: 323c 1364 910b d83f fe8d 5b4f 9633 fa3f
00000310: 99c6 c638 5043 0340 51b5 d954 17e5 05c0
00000320: 8878 3a74 729c af3f 1e30 945b bd23 e63f
00000330: 516b f96c 68a3 0140 7466 561e e79b b9bf
00000340: e6f8 0511 8126 cc3f b2a2 5e99 a0ce e93f
00000350: eb1d aa13 b6a4 e03f 5fda 7027 5d53 fb3f
00000360: ebd6 f359 3b07 0240 75f8 2f92 79f5 0440
00000370: 254d edf8 cc30 fa3f 26e5 2f66 c7a6 fabf
00000380: d2dd c285 2448 e9bf 0096 6301 705a 82bf
00000390: e486 21fd 00df e1bf 5872 d2dd 587e 0140
000003a0: 5e6d 9e91 4f1a c3bf 32f9 3400 558d e4bf
000003b0: 56d7 7d65 f2df ff3f c67e 6777 41b3 e1bf
000003c0: 3402 fcbf a9fa db3f 1f87 ba62 62f6 ebbf
000003d0: 9d1a 3cb5 59d5 00c0 cc9b 5053 c301 d73f
000003e0: 780a d256 bd5d e4bf 0f44 4832 a7a2 fe3f
000003f0: e477 fc1f 2cf1 fdbf f8a4 f748 a853 f0bf
00000400: b83e 79b4 45d2 ff3f 103c 1f3d d27b d83f
00000410: 8038 8cfb 20ba e9bf 3c9f 5dd2 ddee fdbf
00000420: 0034 59b9 653c f9bf 6e27 167e f2dc c4bf
00000430: 4429 6183 62ff f9bf e0ac ac64 75e1 b2bf
00000440: 1794 8500 325f da3f 7c05 8740 705a 0440
00000450: 36f0 b1e6 ea06 d9bf 2e68 b363 d3e0 e93f
00000460: 6e15 a8a4 0e30 f53f 5fa9 a8e1 a507 f5bf
00000470: 22b2 6df7 c741 0440 2c97 f339 fb92 e53f
00000480: c6a4 ca13 5649 f23f 70c8 6fb8 bbb7 88bf
00000490: 3f8b 4c66 5edb e23f d2a5 976b 4099 ccbf
000004a0: da9c 06c1 62a8 dbbf be83 a33e 56c3 fdbf
000004b0: 4009 db09 22f1 cbbf fe5b 47c5 51e4 ec3f
000004c0: e620 df29 9554 d2bf b881 f7af 8db1 dd3f
000004d0: e0ed aad9 dabe f43f e2f0 be2c e6bc d63f
000004e0: 38e2 dc02 0011 c8bf 7ec1 e85f 1474 e0bf
000004f0: 420e 68b2 fcb1 ecbf d3a9 3fca a362 e8bf
00000500: f5ac cc5a 3f82 f23f 9ba0 0230 3971 c0bf
00000510: 0c75 af1e 4ca8 db3f 5f0f e3b6 58bc e4bf
00000520: 5d48 8e68 9cd9 01c0 50e9 34de b02a cf3f
00000530: 4388 b6e0 8f8f 08c0 40b4 2131 c2eb 95bf
00000540: b0f2 a7c9 5813 bcbf 3f93 3109 dd87 eabf
00000550: db89 63fb 3b45 ee3f 4586 d69c 3050 f3bf
00000560: 811f ebff 6881 d23f 19af 6452 8bf5 e6bf
00000570: e651 1330 13f2 e13f a243 b067 d70a d7bf
00000580: 3a0a 1867 2d82 f73f f756 21f9 8a42 f03f
00000590: b119 09a8 8a4d f83f 7c61 5dcb 5268 ff3f
000005a0: 2090 9685 b26f cdbf 2536 a129 a17d f0bf
000005b0: 0357 0efd af42 dd3f 669a 3a8d bcc6 f03f
000005c0: be90 7751 6886 e73f 540c f861 b04e d13f
000005d0: 93ec 311d 476f f23f 98e1 38fd f802 e23f
000005e0: c603 33fe 2ba0 aa3f 000e 2c6f 0a0a 95bf
000005f0: 8b45 af13 9098 d03f f2a0 5e49 185e e43f
00000600: fee8 2dfa 0190 d93f 8ae3 132e 1671 d53f
00000610: 1095 5a6f ef84 d03f 192a 5eb2 0139 e1bf
00000620: c2a6 6102 4937 f73f 0746 d043 4641 edbf
00000630: d8cd da7b a717 ef3f 62c2 34d4 7686 f63f
00000640: 2957 246f 28de f6bf 7c60 5230 8f21 f1bf
00000650: c48c 72ac e72c e0bf 3fc8 4064 5d33 0940
00000660: 10fa ac28 a343 0040 20e7 1a0d d472 abbf
00000670: 4af7 8809 8c37 f33f 2a44 e9a8 e905 ed3f
00000680: 18d3 a4aa 5c33 a43f d45f 8597 61d0 f43f
00000690: eaf4 98df bdf2 e9bf d641 2d5d c7d1 f2bf
000006a0: 3e5d 3bb4 0c72 f73f 8372 a585 5a8d f43f
000006b0: c143 11d8 0954 d23f af83 4416 63d4 ef3f
000006c0: dd24 c8ef 3a9b 02c0 1108 3a2c 1259 fdbf
000006d0: 10f7 0415 e20a debf 4217 3b4a 7ee3 ddbf
000006e0: fa4a b1f3 e387 d13f fe85 c3ac 8147 d83f
000006f0: e3a5 53c0 32fc cd3f 16e3 a00b 7504 d0bf
00000700: 20c5 7066 5e05 e73f 288a 1f8f 8b1e e0bf
00000710: f849 169e 94a0 c7bf b80b 799b 1dbe 0240
00000720: 2604 4ba7 40ae c9bf 6fc9 6d2d 9316 00c0
00000730: 4ceb 85b4 4d88 f33f 28ff b3ec 217b ecbf
00000740: 80b8 68c6 c0b9 9c3f bc7e 7b5d 8574 dfbf
00000750: 3f11 23a1 8d96 ebbf 47fc a0ef 7d41 f53f
00000760: 0baa e5c3 7b49 e43f e03f a809 c168 9d3f
00000770: 6d23 5b05 c293 fe3f 2458 f71a 1864 dfbf
00000780: 5d52 83aa cab9 d23f 9b29 baf7 a51b 0140
00000790: 629a 2768 45f2 d6bf e47e ae7d 0711 e83f
000007a0: 2c6b 6822 3aa6 d33f 648e db41 6e0c e23f
000007b0: 0657 5e41 34c6 f7bf 97d2 e352 6438 fb3f
000007c0: fad6 887b 89f4 f43f 30bf 6113 112f bd3f
000007d0: 15df 5732 84a8 d5bf 78f1 14bc 34fd a0bf
000007e0: 970b 4da5 9b07 d13f 7030 5741 6fc0 ecbf
000007f0: 4417 8074 3e41 f63f f434 5688 a952 e03f
1.8182774704783955 3.723901621503795 0.09297061296874132 -0.2150627616116101 -0.09438213588946948 0.798601568192713 1.1646717263356585 0.08531132383474702
1.139397028084805 -1.7071576022528305 -0.1498775471424206 -0.5604529577606263 0.1548730230820377 -1.4471051477310015 0.22032644863385736 -0.5171468694317154
2.9555535033232236 0.07712685235687877 1.5787474594103803 0.3380553319434881 0.9158448263812624 -1.4726782323089431 1.1812003920707568 2.576601390497272
-2.0272182253728737 0.5413333202379574 1.130032034197658 2.15300592902319 1.1179110368791005 0.8436927795943165 -1.2168836061080588 -2.6224651662316742
0.9157663787891415 1.2752003099058093 -0.7753893998226153 0.8552985970918026 1.2719282370186584 -1.4660497547288274 1.3615935950948608 -0.5244492704695636
-0.6763612777515147 -0.012950876012656473 -0.007588368143244595 0.9251089096275469 1.8565568645734465 2.272868858153588 0.8203782391384741 1.0275961625195575
0.21600111432394575 1.6523062547960576 0.04575868955304174 -0.45988755605228965 0.6546629670660823 0.5069131596453981 0.26767278175799425 -0.23781907539813052
2.032704077667867 -0.09516960998979435 0.5133819032440406 1.718647123314723 1.6894172425679863 0.7309714012999181 0.8426146551926521 0.9525135234494143
0.8650473894067414 0.19658193584460126 -2.411751499319651 0.011846963300351954 -0.5056673860420713 -0.3342293246040722 1.1958485250008255 -1.601334110133593
3.977569941429211 0.3049148758183333 3.1527752961591213 -0.5074734220455356 -0.30932349172704987 1.5156893779841716 0.007579531347290572 -1.2204244727534783
1.5078020803826546 2.927594928669189 0.6212130351331507 -1.3549307750369093 0.073281956044562 0.6544197763828106 -0.40074351981258083 2.6751296638202025
-0.030399540482296095 -0.31242646802740776 0.1640192803349182 0.10414158962460796 0.5412456407757403 -0.3195094346270502 1.0041948705240977 3.2913740017776636
0.3757060506149542 1.6375945186526901 2.407867854658275 -2.7368609074534693 0.06174047154239398 0.6918627537393183 2.204789019929571 -0.10003513804113046
0.2199250538942074 0.8064730639935844 0.5201063522408139 1.7078525105149749 2.253531172517673 2.619860784615464 1.63691422688573 -1.6657175056155409
-0.7900564777873404 -0.008961558382405421 -0.5584721511806632 2.186692936882803 -0.1492404423741886 -0.6422524456063796 1.9921745266451203 -0.5531318027605827
0.4371742606017819 -0.873826210812897 -2.1041750105826638 0.3594826043722008 -0.6364428230011319 1.9147102321769613 -1.8713799714528188 -1.0204241609847582
1.9888360070944326 0.38255744904466926 -0.8039708054582348 -1.870817014447268 -1.5772454490827386 -0.16299277454919142 -1.6248498088849184 -0.07375272472261285
0.41206026125866074 2.544159416313674 -0.3910472157365378 0.808694548347608 1.3242327148339785 -1.3143671812818736 2.532119687113906 0.6741920596948368
1.1429043553455798 -0.012069193426189367 0.5892784116771067 -0.22342686894925962 -0.4321524510400657 -1.8601896712136603 -0.21829629403334572 0.9028710225201164
-0.2864125164892485 0.46396200355777806 1.2965954306263185 0.35527948732102577 -0.18801880016123262 -0.5141698716379748 -0.8967269405843086 -0.7620409917993193
1.1567987009864826 -0.12845530361415033 0.4321470546399986 -0.6479915210734183 -2.2312553566380715 0.24349032258926195 -3.070098643846934 -0.02140716004253229
-0.10967020915263492 -0.8290848903239761 0.9459514532030043 -1.2070776106342163 0.2891485690311058 -0.7174736603969648 0.5608001650785439 -0.3600367081244774
1.4692815806489663 1.016245816388105 1.5189310611618618 1.9629695838867454 -0.22997123263223873 -1.0306712747727798 0.45719527924062237 1.048519660640204
0.735157164683663 0.27042779509810555 1.152167429011375 0.5628628679033225 0.05200326421755323 -0.020546114955335426 0.2593116943581541 0.6364861901284071
0.3994145339162428 0.3350272607781838 0.25811372637174745 -0.5382088168856313 1.4509973614716931 -0.9142180752261887 0.9716374796902825 1.4078281678486282
-1.4292377797587028 -1.070693196064922 -0.5054815643419706 3.1500804741163217 2.03302604463466 -0.05361044559454187 1.2010612843000268 0.9069717692419819
0.03945436080031167 1.3008743208683784 -0.8108815543306751 -1.1762155189245411 1.4653441467579138 1.2845101566846615 0.2863793001206965 0.9946761546053632
-2.3257960064844228 -1.834245846519938 -0.4694142537372139 -0.4670100903425586 0.2739190940675794 0.37936441298924695 0.23425897971109952 -0.2502720464286069
0.7194053650656862 -0.5037286563277279 -0.18458802908988026 2.34282990897324 -0.2006302658901699 -2.011022906220368 1.2207772304233968 -0.8900308249576243
0.028052341566017436 -0.49148687485829234 -0.8621280810553243 1.3284892426015789 0.6339701486697903 0.02871991750185987 1.9110737046450723 -0.4904842627851187
0.2925898232618119 2.138500151985864 -0.35853705569608085 0.7520787672728741 0.3070206962599282 0.5640174185068187 -1.4858896783311493 1.7012675512207005
1.3097014260833348 0.11399943087758113 -0.3384104243882445 -0.033181808432774795 0.2660893549220246 -0.8984905506308802 1.3909287024302595 0.510090605051714
